classifier.pt (torch, 306466 bytes, 18 tensors)

weight f4 [282, 64]
-0.35119596 -0.27798113 1.9862037 0.55732006 1.456679 -0.118994154 0.33423933 0.014691719
1.6771474 -1.3504312 -2.0553854 1.2571874 -0.99261165 0.118602395 0.74418473 1.1427206
0.03600114 2.027073 -0.7172238 -0.8764916 0.36025587 -0.07119855 -2.387142 -0.5927985
-1.1805183 1.0375197 0.59716 -0.07148212 0.42482498 1.0813434 -0.52169216 -0.7222912
0.6596427 0.7724008 -0.68419695 1.165909 -0.91956013 -0.9614883 -0.07188389 -1.0083021
-0.2778093 0.516707 0.33488882 -1.628952 2.1059327 0.434572 0.832897 0.48815307
0.5432397 -0.61586285 -0.10482645 0.83028823 0.13643062 -0.7339649 1.2182586 0.13936377
-0.23637855 -0.43302435 0.17904523 -0.736337 -0.9813923 -0.9655151 0.730902 -0.6889731
0.6394009 -1.2269475 1.0051985 2.5406482 1.5578628 -0.7545843 -0.7793495 0.21091893
0.92088413 -0.08911085 0.17054233 -0.48948112 -1.0160074 -0.8231735 -1.0406326 1.3816396
0.108013324 -0.36524612 -0.97494376 1.1570241 -0.034043968 0.29002002 -0.35609213 1.7075137
-0.8624268 -0.6576991 -0.20475207 0.3503819 -0.51329464 -0.8262565 -0.47535387 -0.41161636
0.3941868 -1.3944792 -0.35428736 1.3504758 1.1316904 0.22958429 2.4176831 0.38845295
-0.4490483 0.45451045 0.8298363 0.7942177 -1.02533 0.9112538 -0.48455 0.5485923
0.17635675 -0.36493218 0.33387658 -0.38744667 0.16229852 0.2905018 0.5544061 -0.26609793
-1.172232 -1.0316293 -0.49405783 -0.077925146 -0.44064403 -0.7096871 0.6259834 0.08152232
0.1693233 0.745309 -0.19224323 -1.2828691 2.2985084 -0.36444992 0.40199855 -0.42068204
-1.3960152 0.4717385 2.1402016 1.5879085 0.29459828 -0.742119 0.31636778 -0.38368237
0.61146706 0.028756581 0.8895374 -0.02642355 0.55816 1.1077704 1.3917671 -0.743578
0.30046946 -0.82667226 -0.36982527 -0.5953073 0.27725124 0.14175913 -0.66496205 -0.6628548
-0.44515157 0.62428373 -0.3131252 3.199157 1.0526568 0.6374119 -0.7172473 -1.3417999
1.1256124 0.5840819 0.65696627 -1.6926577 -0.1971517 -3.0604274 0.44070378 0.17182623
0.33363533 -0.45575276 -1.1382142 1.7073786 -0.10396469 -0.33534244 -0.26062873 -0.71015894
0.8523425 1.1632867 1.2605741 0.6693451 -0.81909806 -0.42120713 0.5697168 -1.5210187
-1.62447 1.664186 -2.1451128 1.5610926 1.7333046 1.50098 -0.9331855 1.8536574
-0.6040562 -1.1515812 -1.3498528 0.7537746 -1.0212988 1.0770236 -1.9976038 -0.47195676
1.0065143 -0.28480178 -0.2625805 -0.06832284 -0.11782524 0.8679148 1.1548868 1.0406952
-0.97715217 0.9412293 1.85977 -1.7254465 0.17482868 1.8597516 0.56294894 1.2509725
-0.9666403 2.0419912 -1.2902412 -0.78957266 -1.0532933 0.5939206 -2.2061918 -0.7921576
-0.6345676 1.0939649 1.6873775 -1.4398464 -0.98571724 -1.4230522 0.15339032 0.64831555
-0.7501704 0.6430294 0.38614514 -1.037181 0.113418825 -1.0222716 -1.0586458 0.50068766
-1.2780592 -0.74387467 0.5292445 0.11812726 -0.36436695 -0.7020888 0.22753835 0.15656757
00000000: f5cf b3be 8b53 8ebe ec3b fe3f 87ac 0e3f
00000010: 7574 ba3f 35b3 f3bd 6b21 ab3e 89b5 703c
00000020: c4ac d63f eeda acbf 6f8b 03c0 84eb a03f
00000030: cc1b 7ebf d0e5 f23d e482 3e3f ab44 923f
00000040: ee75 133d 90bb 0140 fb9b 37bf c161 60bf
00000050: 7573 b83e 8cd0 91bd efc6 18c0 a4c1 17bf
00000060: 391b 97bf 72cd 843f 7adf 183f 3865 92bd
00000070: a982 d93e 7669 8a3f 9e8d 05bf 13e8 38bf
00000080: 58de 283f 0fbc 453f 8827 2fbf 823c 953f
00000090: 4b68 6bbf 1924 76bf dc37 93bd 0b10 81bf
000000a0: 053d 8ebe e946 043f 8c76 ab3e 8081 d0bf
000000b0: 9ac7 0640 3980 de3e bd38 553f 33ef f93e
000000c0: c211 0b3f 30a9 1dbf 40af d6bd c58d 543f
000000d0: 78b4 0b3e 20e5 3bbf e6ef 9b3f 60b5 0e3e
000000e0: 380d 72be 5eb5 ddbe a257 373e 9580 3cbf
000000f0: 873c 7bbf ff2b 77bf 651c 3b3f 8b60 30bf
00000100: c7af 233f 9e0c 9dbf 58aa 803f fb99 2240
00000110: 0c68 c73f 702c 41bf 7383 47bf 22fb 573e
00000120: 10bf 6b3f c07f b6bd a6a2 2e3e 459d fabe
00000130: 880c 82bf 80bb 52bf 7333 85bf 91d9 b03f
00000140: 1736 dd3d 8a01 bbbe ea95 79bf 5e19 943f
00000150: b071 0bbd 817d 943e b551 b6be cf8f da3f
00000160: 01c8 5cbf f85e 28bf 87aa 51be 4265 b33e
00000170: 4767 03bf 8c85 53bf 9561 f3be 61bf d2be
00000180: dad2 c93e 4b7e b2bf 2765 b5be 64dc ac3f
00000190: 3bdb 903f 2518 6b3e 52bb 1a40 4ee3 c63e
000001a0: a9e9 e5be 98b5 e83e 2770 543f da51 4b3f
000001b0: 033e 83bf ee47 693f f016 f8be 8c70 0c3f
000001c0: dd96 343e 64d8 babe dff1 aa3e 695f c6be
000001d0: 9531 263e a7bc 943e 8fed 0d3f fd3d 88be
000001e0: b30b 96bf 6e0c 84bf 26f5 fcbe 3897 9fbd
000001f0: 189c e1be 0eae 35bf 7340 203f 2df5 a63d
00000200: 1663 2d3e 92cc 3e3f 69db 44be 0e35 a4bf
00000210: c31a 1340 2e99 babe c1d2 cd3e a363 d7be
00000220: a0b0 b2bf b587 f13e 10f9 0840 9640 cb3f
00000230: 96d5 963e 83fb 3dbf f5fa a13e 0472 c4be
00000240: 1b89 1c3f ec92 eb3c b9b8 633f 3376 d8bc
00000250: 93e3 0e3f 6ccb 8d3f 6d25 b23f 215b 3ebf
00000260: 22d7 993e cba0 53bf bd59 bdbe 0f66 18bf
00000270: e0f3 8d3e 4e29 113e f43a 2abf dab0 29bf
00000280: e8ea e3be 0fd1 1f3f f251 a0be fdbe 4c40
00000290: 75bd 863f 6d2d 233f 859d 37bf 19c0 abbf
000002a0: 1114 903f 6486 153f f12e 283f 02a9 d8bf
000002b0: 23e2 49be 0bde 43c0 eda3 e13e 37f3 2f3e
000002c0: 40d2 aa3e 6d58 e9be 01b1 91bf 628b da3f
000002d0: 70eb d4bd 01b2 abbe 2171 85be facc 35bf
000002e0: 1e33 5a3f 94e6 943f 7e5a a13f 335a 2b3f
000002f0: 69b0 51bf 76a8 d7be f6d8 113f beb0 c2bf
00000300: a2ee cfbf 0c04 d53f 8749 09c0 e2d1 c73f
00000310: eddc dd3f 1d20 c03f 3fe5 6ebf a544 ed3f
00000320: 6da3 1abf 0367 93bf fac7 acbf 5ff7 403f
00000330: ebb9 82bf e9db 893f 7bb1 ffbf 51a4 f1be
00000340: 76d5 803f 8ad1 91be f470 86be d8ec 8bbd
00000350: 5c4e f1bd aa2f 5e3f 55d3 933f 8035 853f
00000360: a526 7abf 67f4 703f f20c ee3f 6edb dcbf
00000370: 4a06 333e 570c ee3f 6c1d 103f de1f a03f
00000380: bd75 77bf fcaf 0240 a026 a5bf 6f21 4abf
00000390: 51d2 86bf 2e0b 183f 3f32 0dc0 d7ca 4abf
000003a0: 0673 22bf 0b07 8c3f fcfb d73f e34c b8bf
000003b0: f757 7cbf 9326 b6bf 5a12 1d3e 02f8 253f
000003c0: 2b0b 40bf 939d 243f d1b4 c53e 59c2 84bf
000003d0: 2148 e83d ccd9 82bf b581 87bf 112d 003f
000003e0: 7297 a3bf 926e 3ebf 917c 073f b4ec f13d
000003f0: 4e8e babe 17bc 33bf d0ff 683e 4053 203e

weight f4 [32, 64, 5]
-0.007962676 0.03499438 0.021581976 0.022249976 -0.020912897 -0.014216602 -0.05115227 -0.034099877
-0.02212284 -0.051405996 -0.05030479 -0.054573677 0.033704042 0.0037159673 -0.016365949 -0.0017212917
0.019149968 0.012644177 0.0076584243 -0.023111211 -0.03639668 -0.0009550981 0.028775519 0.024444045
0.028720628 -0.048660334 -0.03726484 -0.0150927175 -0.044296525 -0.04286605 -0.048391674 -0.032739654
-0.044984184 -0.028656067 -0.03434159 -0.031648844 0.054419324 0.025941806 -0.005792217 -0.008147961
0.03950115 -0.0018310078 -0.020092765 -0.035944406 0.03621092 0.052736036 0.024105394 -0.002473824
0.03513167 -0.051495135 0.0050832005 0.045045685 -0.040718917 -0.029142126 -0.001419499 -0.0038606962
-0.028809633 -0.03369681 0.053892717 0.028594453 0.034666102 0.04430952 -0.019621827 -0.030937681
0.029956175 -0.03619506 -0.026771514 -0.016032016 -0.024540294 -0.03364671 -0.04333713 -0.032229364
0.021223886 -0.04771822 -0.019006314 0.048876043 -0.029428832 -0.032822702 0.040798433 -0.03654414
-0.0009279489 -0.03517673 -0.03758772 0.05272196 -0.03340533 -0.023813117 0.019961178 -0.010009557
-0.034491852 0.026912171 0.029935822 0.05575546 0.03753867 0.0046232245 0.017461224 -0.013469607
0.003912582 -0.039822657 0.005236539 -0.049387224 -0.004000947 0.032546524 -0.045731492 0.027507912
-0.019416941 0.021361785 -0.013260884 -0.00061708654 -0.029967884 -0.053447474 -0.052268364 0.023687875
-0.035454582 -0.037822768 0.04789714 -0.04713811 0.051137276 0.021766795 0.037338354 -0.046560526
-0.021992372 0.050779074 0.00012339065 0.011688766 -0.053796846 -0.010713549 -0.027456267 -0.043746445
0.016681949 -0.035817232 -0.0509534 0.02306403 0.05468121 -0.040733658 -0.008645989 -0.033425674
0.05001717 -0.00010363856 0.012339759 0.013136613 -0.000843536 -0.03344496 0.020906746 0.00482611
0.04004892 0.0017066109 -0.054492135 0.019174332 -0.020110471 -0.021352962 0.014319994 -0.038049497
-0.011825158 -0.0485804 -0.00924269 -0.040868197 -0.02786549 -0.04468969 0.009510716 0.04117963
-0.03623647 0.0045644348 -0.04062409 0.01218614 0.046828687 -0.029627752 0.053799573 0.055466678
0.0003563575 -0.024208473 0.0465834 0.0202546 0.018270627 -0.024847956 -0.03595358 0.046321657
0.021101728 0.04223049 0.008657752 0.015887933 0.0024409506 -0.01824435 0.05014679 0.0055285357
-0.015317542 0.05065313 -0.030960958 0.04397946 -0.041992553 -0.04329827 0.027713545 -0.046135493
0.009097542 -0.03326014 0.008423118 0.03974766 -0.04568134 -0.03891939 0.009374731 -0.038903948
-0.010515808 -0.036735315 -0.022904588 -0.023471408 -0.00606864 -0.05149854 0.043273136 0.012895577
-0.0015196056 0.03490991 -0.032836042 0.051456276 -0.04608563 0.00024744106 -0.047530968 -0.008922665
0.051075548 -0.008549388 0.04408398 -0.03799096 -0.027877385 -0.023735622 -0.020138066 0.055258702
-0.052163146 -0.0044704056 0.018069407 0.009626944 -0.048724342 0.052944615 0.015184721 0.014780363
0.049823515 -0.045954783 -0.013844671 -0.0072746645 0.03284298 -0.021928957 -0.045977972 -0.022004614
0.022573886 0.044589728 0.023522353 0.054936577 -0.046761215 -0.008595356 0.042317025 0.048764832
0.04073783 -0.005410956 0.05563454 -0.013122606 0.051329914 0.014904893 -0.04077985 0.04066588
00000000: e275 02bc 4456 0f3d afcc b03c 9545 b63c
00000010: 8651 abbc c0ec 68bc 0b85 51bd 50ac 0bbd
00000020: f53a b5bc 188f 52bd 650c 4ebd a688 5fbd
00000030: 400d 0a3d 9687 733b e211 86bc f79c e1ba
00000040: 65e0 9c3c 8629 4f3c 85f3 fa3b b953 bdbc
00000050: af14 15bd 8c5f 7aba a3ba eb3c e13e c83c
00000060: 8647 eb3c 0f50 47bd 04a3 18bd 7247 77bc
00000070: 4670 35bd 5094 2fbd 5936 46bd 041a 06bd
00000080: 5641 38bd 21c0 eabc c4a9 0cbd 38a2 01bd
00000090: cce6 5e3d e983 d43c a3cc bdbb 077f 05bc
000000a0: f5cb 213d 6dfe efba 9599 a4bc 713a 13bd
000000b0: e751 143d be01 583d ad78 c53c e11f 22bb
000000c0: 3ae6 0f3d 90ec 52bd fa90 a63b d381 383d
000000d0: e1c8 26bd 78bb eebc 7c0e baba bc03 7dbb
000000e0: 2e02 ecbc ab05 0abd 9cbe 5c3d ea3e ea3c
000000f0: 0bfe 0d3d e67d 353d f4bd a0bc 0571 fdbc
00000100: a766 f53c 4541 14bd ef4f dbbc 9355 83bc
00000110: ba08 c9bc 22d1 09bd 4682 31bd f002 04bd
00000120: b7dd ad3c 2e74 43bd 21b3 9bbc 3f32 483d
00000130: bc14 f1bc 1971 06bd 421c 273d 4faf 15bd
00000140: 9941 73ba 7a15 10bd 95f5 19bd fbf2 573d
00000150: 07d4 08bd ba13 c3bc a085 a33c 20ff 23bc
00000160: 5447 0dbd ea76 dc3c f83b f53c d65f 643d
00000170: 26c2 193d 6b7e 973b d70a 8f3c a0af 5cbc
00000180: 1e35 803b 151d 23bd 4697 ab3b 424a 4abd
00000190: 601a 83bb 814f 053d f250 3bbd 4658 e13c
000001a0: 4710 9fbc e9fe ae3c 2e44 59bc fac3 21ba
000001b0: 357f f5bc bdeb 5abd 5a17 56bd 130d c23c
000001c0: d338 11bd 0cec 1abd cb2f 443d e413 41bd
000001d0: 5275 513d 4750 b23c 1af0 183d 40b6 3ebd
000001e0: 5929 b4bc b8fd 4f3d 6d62 0139 3d82 3f3c
000001f0: 155a 5cbd e287 2fbc f7eb e0bc 792f 33bd
00000200: 95a8 883c 17b5 12bd 83b4 50bd c7f0 bc3c
00000210: 68f9 5f3d 56d8 26bd e8a7 0dbc 5ce9 08bd
00000220: cede 4c3d 8758 d9b8 b32c 4a3c f33a 573c
00000230: be20 5dba 95fd 08bd a044 ab3c 5824 9e3b
00000240: 560a 243d 5cb0 df3a 2533 5fbd 7d13 9d3c
00000250: b7be a4bc 68ec aebc 689e 6a3c cad9 1bbd
00000260: 4fbe 41bc 3efc 46bd a76e 17bc 6965 27bd
00000270: 2b46 e4bc 890c 37bd d6d2 1b3c f9ab 283d
00000280: b16c 14bd 4191 953b 7265 26bd 60a8 473c
00000290: 70cf 3f3d e6b5 f2bc f15c 5c3d 0731 633d
000002a0: 7ed5 ba39 d950 c6bc 3cce 3e3d faec a53c
000002b0: 48ac 953c f18d cbbc 1044 13bd c7bb 3d3d
000002c0: 88dd ac3c e1f9 2c3d 3ed9 0d3c 6927 823c
000002d0: 5bf8 1f3b 2d75 95bc b866 4d3d b828 b53b
000002e0: 6df6 7abc a879 4f3d d6a1 fdbc ce23 343d
000002f0: 6200 2cbd 8759 31bd 8407 e33c 92f8 3cbd
00000300: db0d 153c c93b 08bd 1e01 0a3c 71ce 223d
00000310: 5b1c 3bbd f069 1fbd 7998 193c bf59 1fbd
00000320: 7f4a 2cbc c577 16bd 67a2 bbbc 1c47 c0bc
00000330: 71db c6bb 22f0 52bd 2c3f 313d f847 533c
00000340: 812d c7ba b2fd 0e3d 167f 06bd d1c3 523d
00000350: 49c4 3cbd faba 8139 d5af 42bd 5f30 12bc
00000360: 9834 513d bb12 0cbc 6791 343d 699c 1bbd
00000370: 1d5f e4bc 3571 c2bc 96f8 a4bc f356 623d
00000380: 06a9 55bd 7b7c 92bb 4b06 943c 54ba 1d3c
00000390: 2d93 47bd 74dc 583d 56c9 783c 5629 723c
000003a0: be13 4c3d 153b 3cbd c2d4 62bc 4f60 eebb
000003b0: 5c86 063d 5ba4 b3bc 6653 3cbd 0543 b4bc
000003c0: dfec b83c b8a3 363d f3b1 c03c 2d05 613d
000003d0: b088 3fbd 89d3 0cbc 9e54 2d3d a2bd 473d
000003e0: b6dc 263d 644e b1bb 0be1 633d 3300 57bc
000003f0: 513f 523d a733 743c c608 27bd 4491 263d

bias f4 [32]
-0.025363743 -0.040437795 0.004958844 0.010991605 0.030958207 0.00670206 0.05388961 0.0022465682
0.045908168 -0.015958685 0.03449044 -0.032437455 0.010560471 -0.01935514 -0.0012698589 0.031546064
-0.014044804 0.015556852 0.02033091 0.0076115294 -0.034431778 0.04340928 -0.035606634 -0.009575771
0.054419305 0.055784117 0.04998164 -0.053590477 -0.023338627 -0.052688837 0.044315998 0.044576846
00000000: a0c7 cfbc 1aa2 25bd cc7d a23b 2216 343c
00000010: 119c fd3c f49c db3b 5abb 5c3d 293b 133b
00000020: 340a 3c3d cabb 82bc d945 0d3d 23dd 04bd
00000030: d305 2d3c ac8e 9ebc 6571 a6ba 7236 013d
00000040: 2d1c 66bc 2be2 7e3c 028d a63c 236a f93b
00000050: 5608 0dbd eecd 313d 43d8 11bd b2e3 1cbc
00000060: c7e6 5e3d e37d 643d 8cb9 4c3d b081 5bbd
00000070: a630 bfbc 40d0 57bd b184 353d 3696 363d

weight f4 [64, 32, 5]
0.037987057 -0.032359324 -0.0069496646 -0.0077133174 0.055895943 0.02312342 -0.07189422 -0.027649537
0.01603732 0.0015902506 0.063764356 0.043422017 0.06231992 -0.016267784 -0.05579519 -0.032027803
-0.06855546 -0.042123478 0.017835718 0.036409408 0.010165818 -0.07490816 0.06605659 0.062036645
0.030392854 0.06734333 0.057463538 0.016962875 0.01555555 -0.04399214 0.018655859 0.0059461817
-0.078372 0.04175717 -0.05441694 -0.06201835 0.072400786 0.0664886 0.043382037 -0.029203307
-0.027439252 0.015321252 0.043201234 -0.07180198 0.025785811 -0.00044985116 -0.051292315 -0.029886222
0.07880516 0.009919862 -0.054709215 0.013916802 0.04518281 0.039820258 -0.0734305 0.012121016
0.042497367 -0.016534388 -0.06697973 0.07182997 -0.04776694 0.026316043 0.03700019 -0.061729524
0.07653855 0.031294778 0.010776496 0.041003913 -0.059874807 -0.011420355 -0.06082623 0.04794238
0.07573768 -0.07094161 -0.0231796 0.02461139 0.036202833 0.032811604 -0.073520385 -0.06552475
0.038040444 0.066798404 0.056428257 -0.0053001065 0.062105346 0.04299809 -0.0570294 -0.05791098
0.02513494 0.0075612464 0.014896535 -0.056630693 0.058795713 0.0116468975 -0.012912622 -0.03486443
0.037435714 0.075496264 0.045304224 -0.055184957 -0.041664325 -0.047143124 0.0647458 0.013783589
-0.033754226 0.07360565 -0.019252863 -0.013361757 -0.05413126 0.019290522 0.03519447 0.033684768
-0.033599358 -0.038293254 0.02389436 -0.025342962 -0.05691691 -0.023706071 0.03302041 -0.060772832
-0.05533479 0.059493028 0.0028843137 0.07493361 -0.023703659 0.011648547 0.07720644 -0.070655495
0.03794101 0.01813459 0.025899958 -0.0592705 0.06909852 -0.061842926 0.043135423 -0.03727776
0.0090745855 0.06253975 -0.02331515 -5.0900762e-05 0.07694331 0.034891468 0.0030276387 -0.005273662
0.03497067 -0.023399591 -0.02589043 0.028255643 0.014193952 0.005988044 0.031783856 -0.056119073
0.02756043 0.009694734 -0.037478898 -0.06481707 -0.0105786035 -0.070001 0.05300425 0.005459868
0.049762547 0.017414149 0.038272906 0.012772651 0.051414378 -0.026686493 -0.06656768 -0.061608355
-0.06598736 -0.075777784 0.06922116 -0.04464702 -0.042518675 -0.03249741 -0.078199156 0.019494493
0.07641887 -0.0123350425 0.054178957 0.039371848 0.07674668 -0.03779266 -0.011020849 0.020912202
0.01692922 -0.010260363 -0.060933884 -0.056753088 -0.07470265 -0.020856015 -0.008169191 -0.07812756
0.031668503 0.043744884 -0.026314411 -0.023469558 -0.042205874 0.046389498 0.07172146 -0.01769538
-0.0060812416 -0.060347684 -0.067947015 0.04559611 -0.024480129 -0.05454888 0.018209232 0.07075535
0.02407951 -0.060051158 -0.057907294 -0.02087 -0.03989714 0.02129434 -0.015179849 -0.029985571
-0.042891134 0.012555072 0.02993075 0.07229746 0.020594914 -0.04020643 0.046651807 -0.00043459318
-0.012574203 0.030240282 0.009608737 -0.052798454 -0.04652654 0.04476601 0.074960746 0.027466422
0.072884075 0.028564233 -0.030229097 0.061474077 0.058665242 -0.01552706 -0.014506274 -0.018884702
0.05594894 0.060116477 0.06548694 -0.05375814 -0.04549779 0.035899542 -0.014039497 0.024302093
0.010249242 -0.02511708 0.0034695736 0.056995366 -0.010886929 0.00927375 0.0483902 -0.046808355
00000000: 5198 1b3d 368b 04bd 03ba e3bb ffbf fcbb
00000010: 25f3 643d 546d bd3c 473d 93bd 4881 e2bc
00000020: b360 833c f56f d03a e396 823d 49db 313d
00000030: 2c43 7f3d 0444 85bc 7f89 64bd 962f 03bd
00000040: ce66 8cbd ab89 2cbd 361c 923c 0822 153d
00000050: 888e 263c 7369 99bd ad48 873d 231a 7e3d
00000060: 6ffa f83c 4deb 893d e35e 6b3d baf5 8a3c
00000070: b5dc 7e3c 1a31 34bd 2cd4 983c 30d8 c23b
00000080: 8081 a0bd 9109 2b3d 4ce4 5ebd f406 7ebd
00000090: dd46 943d 2d2b 883d 5db1 313d c63b efbc
000000a0: 48c8 e0bc fd05 7b3c c7f3 303d eb0c 93bd
000000b0: c43c d33c 00da ebb9 e417 52bd f3d3 f4bc
000000c0: 9a64 a13d eb86 223c c516 60bd 4c03 643c
000000d0: 9c11 393d 911a 233d bb62 96bd 3a97 463c
000000e0: b811 2e3d 2073 87bc ab2c 89bd 971b 933d
000000f0: 44a7 43bd be94 d73c 838d 173d 19d8 7cbd
00000100: 3ec0 9c3d f42e 003d e68f 303c b8f3 273d
00000110: 493f 75bd 711c 3bbc ed24 79bd 3b5f 443d
00000120: 5b1c 9b3d d649 91bd 25e3 bdbc d39d c93c
00000130: 6c49 143d 7665 063d db91 96bd d731 86bd
00000140: 4cd0 1b3d 9acd 883d 5121 673d 84ac adbb
00000150: 2d62 7e3d c41e 303d a997 69bd 1034 6dbd
00000160: cae7 cd3c 55c4 f73b 9910 743c 96f5 67bd
00000170: c6d3 703d a1d2 3e3c 768f 53bc 01ce 0ebd
00000180: 3156 193d c99d 9a3d ec90 393d 9f09 62bd
00000190: 36a8 2abd 2619 41bd 7299 843d 90d4 613c
000001a0: df41 0abd 8fbe 963d 2eb8 9dbc 45eb 5abc
000001b0: bdb8 5dbd 2807 9e3c 1428 103d 0af9 093d
000001c0: 7b9f 09bd 63d9 1cbd 1bbe c33c 0b9c cfbc
000001d0: b521 69bd 3c33 c2bc 6940 073d efec 78bd
000001e0: bca6 62bd f6ae 733d c106 3d3b cb76 993d
000001f0: 2d2e c2bc 8cd9 3e3c 691e 9e3d d4b3 90bd
00000200: 0868 1b3d fe8e 943c 262c d43c a0c5 72bd
00000210: 8683 8d3d 024f 7dbd c5ae 303d 91b0 18bd
00000220: 92ad 143c d714 803d 6aff bebc 477e 55b8
00000230: 7494 9d3d 5bea 0e3d 596b 463b afce acbb
00000240: 683d 0f3d 80b0 bfbc 2b18 d4bc 6178 e73c
00000250: c08d 683c 5b37 c43b ca2f 023d 1ddd 65bd
00000260: 69c6 e13c a9d6 1e3c 7983 19bd d0be 84bd
00000270: e151 2dbc af5c 8fbd fc1a 593d b1e8 b23b
00000280: d0d3 4b3d 1ea8 8e3c 0dc4 1c3d 6244 513c
00000290: e297 523d a29d dabc a354 88bd 0b59 7cbd
000002a0: 6224 87bd 6231 9bbd d3c3 8d3d cbdf 36bd
000002b0: 1028 2ebd 011c 05bd e126 a0bd eab2 9f3c
000002c0: 7f81 9c3d eb18 4abc c1ea 5d3d 6044 213d
000002d0: 5d2d 9d3d 7acc 1abd cb90 34bc 1150 ab3c
000002e0: 26af 8a3c 151b 28bc cf95 79bd ed75 68bd
000002f0: b4fd 98bd 3cda aabc 12d8 05bc 5801 a0bd
00000300: d5b6 013d d62d 333d 5291 d7bc 3b43 c0bc
00000310: 11e0 2cbd ea02 3e3d b3e2 923d e7f5 90bc
00000320: 2745 c7bb 222f 77bd ce27 8bbd fdc2 3a3d
00000330: 8d8a c8bc a56e 5fbd 872b 953c 2ee8 903d
00000340: 6442 c53c 34f8 75bd 3330 6dbd 90f7 aabc
00000350: 2f6b 23bd 7871 ae3c e7b4 78bc 4da4 f5bc
00000360: 9dae 2fbd cab3 4d3c 5531 f53c b110 943d
00000370: aab6 a83c 7faf 24bd f715 3f3d 1cda e3b9
00000380: 0804 4ebc 78ba f73c f76d 1d3c 3143 58bd
00000390: 9d92 3ebd 905c 373d 0585 993d 4301 e13c
000003a0: 3f44 953d 8aff e93c 03a3 f7bc 3ecc 7b3d
000003b0: f74a 703d 3665 7ebc b9ab 6dbc 17b4 9abc
000003c0: b72a 653d b23c 763d 041e 863d 7f31 5cbd
000003d0: e45b 3abd 660b 133d eb05 66bc 2f15 c73c
000003e0: 70ec 273c 56c2 cdbc c961 633b f973 693d
000003f0: 175f 32bc edf0 173c cd34 463d 1eba 3fbd

bias f4 [64]
-0.061930336 0.0002869706 0.0379171 -0.051578153 0.014229869 0.0045029973 -0.009983778 -0.060833666
-0.055935714 -0.074376754 -0.055204757 -0.07302424 0.040094014 -0.0038879004 0.037975267 0.032844685
0.033214588 0.050771367 0.0146257365 -0.07783029 -0.025922285 -0.008480344 -0.012573581 0.020306002
0.009300637 0.06676105 -0.030747283 -0.044458285 0.057109676 -0.013129419 -0.076942645 0.048215404
0.014331132 0.054521773 0.07411723 -0.0014972609 0.044701237 0.005652614 -0.036195476 0.05406428
-0.048768017 -0.017561167 -0.041703764 0.06730737 -0.03687641 -0.07275489 0.060877178 0.014515077
-0.04847826 -0.030243618 0.037412163 -0.07092496 -0.049946435 -0.0009016343 0.02318305 -0.015168003
0.036227893 -0.02181625 0.004860151 0.01764938 -0.07466725 -0.05768292 -0.03774913 0.02287053
00000000: aaaa 7dbd 8b74 9639 f64e 1b3d 9d43 53bd
00000010: 6524 693c e18d 933b 0093 23bc b92c 79bd
00000020: d91c 65bd d752 98bd 621e 62bd bc8d 95bd
00000030: 9f39 243d 25cc 7ebb f48b 1b3d 2688 063d
00000040: 050c 083d a3f5 4f3d c9a0 6f3c 7d65 9fbd
00000050: f95a d4bc 24f1 0abc 6c01 4ebc c658 a63c
00000060: b361 183c 04ba 883d bae1 fbbc e419 36bd
00000070: d6eb 693d c61c 57bc 1b94 9dbd 847d 453d
00000080: 20cd 6a3c 3952 5f3d c6ca 973d bd3f c4ba
00000090: a518 373d 9039 b93b b541 14bd 8272 5d3d
000000a0: f9c0 47bd 70dc 8fbc 91d1 2abd 72d8 893d
000000b0: b80b 17bd 8400 95bd 595a 793d a5d0 6d3c
000000c0: 2491 46bd 77c1 f7bc 7f3d 193d 1b41 91bd
000000d0: a294 4cbd a75b 6cba 61ea bd3c 3783 78bc
000000e0: b363 143d feb7 b2bc e741 9f3b 6f95 903c
000000f0: 25eb 98bd ed44 6cbd d59e 1abd fa5a bb3c

in_proj_weight f4 [192, 64]
0.1071669 -0.11132977 -0.12379223 -0.13223492 -0.13781896 0.117346674 -0.02146937 -0.07154294
0.12793577 0.10186603 0.12607917 0.11076676 0.09101091 0.0055050943 -0.05123501 -0.023510791
-0.12649672 0.12829992 0.03404228 -0.054212224 -0.096772455 0.13731006 0.017677853 -0.012421562
-0.09023287 0.041191764 0.09615027 0.085865326 0.07752321 -0.027958274 0.06349922 0.077796236
-0.02131722 0.14754082 0.036189917 0.11376188 -0.02712961 0.020229476 -0.06362359 0.031760577
0.032403108 0.11409054 0.11199412 -0.06274715 0.0057533327 0.1281525 -0.03562511 0.056330495
-0.059116397 -0.07180609 0.03511796 0.15188429 -0.09993484 0.065817386 0.03039366 0.114186645
-0.101714626 -0.10287709 0.13214132 0.12767546 -0.052900624 -0.045816876 0.00851547 0.025940467
-0.048628032 -0.08128943 0.10586496 -0.034352276 -0.085506454 0.037687615 0.13077106 0.09565084
-0.13344878 -0.15036312 -0.13199991 0.008876877 0.01312974 0.12189419 -0.1313176 0.010971024
-0.15242413 0.0028459423 -0.0443584 0.13616027 0.05621333 -0.10336974 -0.044532742 -0.06438519
-0.07449645 0.045304395 0.116177246 -0.09827413 0.109304555 -0.11250437 0.081409045 -0.050269578
0.062134728 -0.008793803 -0.095906466 0.032691516 -0.11789394 -0.09258765 -0.014526202 -0.06520221
0.057517685 0.11798784 0.015468256 0.10532634 0.1377444 -0.12875749 -0.11253786 0.11612514
0.10778372 -0.076632515 0.092650026 -0.018224243 -0.083443716 -0.13171682 -0.11470115 0.12110266
-0.0044924864 0.053862296 -0.13670285 -0.13677284 -0.059628166 -0.014274023 0.093954764 0.104531534
-0.017967755 -0.08011183 0.038108114 0.13379267 0.074135296 -0.1457706 -0.03490259 -0.02831415
-0.02274447 -0.1360751 -0.072509505 -0.10039324 0.031269483 -0.14546484 -0.052005127 0.037828267
-0.03462028 0.13648541 -0.04358954 -0.07711408 0.06881467 -0.07231017 -0.067236565 0.11072588
0.07141946 -0.017470805 -0.057340987 0.14894742 0.14888124 0.12169041 0.106700614 0.021200327
0.021278784 0.12737688 0.11002299 0.1336492 0.09141811 -0.097916685 -0.056583572 0.065904945
-0.09379374 0.11216048 -0.12517212 -0.088172704 0.024856318 -0.09363929 0.093360975 -0.11326666
-0.08229155 0.06808529 -0.020701094 0.09883019 -0.09815678 0.029056877 0.10715508 0.068390034
0.03649599 -0.0016634073 0.0989348 0.11026738 -0.1414696 0.13941576 -0.0984982 0.06714723
0.121922635 0.061454237 -0.05923798 0.10981021 0.0028375653 0.1304911 0.08787452 -0.09565858
-0.068437025 0.008785882 -0.02153131 0.10954934 -0.045437347 -0.052229658 -0.030577494 -0.14106105
0.108618334 -0.14226994 -0.0094909575 -0.029764598 -0.12754978 0.02616301 0.1492845 0.09131722
0.04001905 0.10633789 0.12828927 -0.02595983 -0.06138089 -0.013586376 -0.12914383 -0.012697924
0.13556783 0.08653003 0.04941735 -0.003500574 -0.076613665 -0.12531157 -0.1119257 -0.1521038
-0.117013246 -0.017678583 0.039920244 0.048761312 -0.037977863 0.02950541 0.06220028 -0.13199045
0.0595498 0.11933126 0.04823153 -0.0713502 0.07460766 -0.10060164 -0.10234911 -0.12605028
-0.07581436 -0.061426844 -0.024809416 0.09718102 0.03782936 -0.036532857 0.0549225 -0.052928746
00000000: 527a db3d dd00 e4bd c886 fdbd 9768 07be
00000010: 6a20 0dbe 7453 f03d 88e0 afbc 1b85 92bd
00000020: 9801 033e 239f d03d e61a 013e afd9 e23d
00000030: ee63 ba3d 1464 b43b cddb 51bd b499 c0bc
00000040: 5b88 01be 0e61 033e eb6f 0b3d a30d 5ebd
00000050: a330 c6bd 029b 0c3e 25d1 903c cf83 4bbc
00000060: 03cc b8bd b2b8 283d 6fea c43d 29da af3d
00000070: 7dc4 9e3d c008 e5bc e10b 823d a253 9f3d
00000080: 73a1 aebc f114 173e e13b 143d fdfb e83d
00000090: ea3e debc 49b8 a53c 164d 82bd 6117 023d
000000a0: 1fb9 043d 4da8 e93d 2c5d e53d 9481 80bd
000000b0: 7486 bc3b 693a 033e a3eb 11bd ceba 663d
000000c0: 0924 72bd 120f 93bd dad7 0f3d 8e87 1b3e
000000d0: a3aa ccbd 44cb 863d 20fc f83c b0da e93d
000000e0: c24f d0bd 39b1 d2bd 0e50 073e 5bbd 023e
000000f0: 53ae 58bd 7aaa 3bbd 7884 0b3c 1a81 d43c
00000100: 302e 47bd 137b a6bd bacf d83d f9b4 0cbd
00000110: 021e afbd 545e 1a3d d9e8 053e 96e4 c33d
00000120: cca6 08be caf8 19be fc2a 07be 5270 113c
00000130: 1f1e 573c a9a3 f93d 1f78 06be cfbf 333c
00000140: 1215 1cbe fd82 3a3b 27b1 35bd 996d 0b3e
00000150: f33f 663d 84b3 d3bd f767 36bd 62dc 83bd
00000160: 9891 98bd 1a91 393d 56ee ed3d f243 c9bd
00000170: 11db df3d b168 e6bd c9b9 a63d 79e7 4dbd
00000180: fc80 7e3d e213 10bc 9c6a c4bd 8ae7 053d
00000190: 6172 f1bd 989e bdbd 4fff 6dbc bc88 85bd
000001a0: aa97 6b3d 9ca3 f13d 916e 7d3c 56b5 d73d
000001b0: de0c 0d3e 01d9 03be 407a e6bd 04d3 ed3d
000001c0: b6bd dc3d 82f1 9cbd 4cbf bd3d 024b 95bc
000001d0: 8ae4 aabd c6e0 06be 70e8 eabd ac04 f83d
000001e0: b535 93bb b69e 5c3d d5fb 0bbe 2e0e 0cbe
000001f0: aa3c 74bd 97dd 69bc 5b6b c03d a114 d63d
00000200: 1d31 93bc ac11 a4bd 4117 1c3d f200 093e
00000210: 3fd4 973d e344 15be 05f6 0ebd 14f3 e7bc
00000220: 9c52 babc 4557 0bbe dd7f 94bd f99a cdbd
00000230: 6e14 003d bcf4 14be 5403 55bd d0f1 1a3d
00000240: ffcd 0dbd d5c2 0b3e f28a 32bd fded 9dbd
00000250: b5ee 8c3d 5b17 94bd 53b3 89bd 40c4 e23d
00000260: 5e44 923d ef1e 8fbc 62de 6abd ac85 183e
00000270: 5374 183e d238 f93d da85 da3d 4fac ad3c
00000280: d850 ae3c 166f 023e bc53 e13d 56db 083e
00000290: 6b39 bb3d 8b88 c8bd 2dc4 67bd 2cf9 863d
000002a0: ef16 c0bd 65b4 e53d 1f2d 00be e493 b4bd
000002b0: 7a9f cb3c f5c5 bfbd 0a34 bf3d 5af8 e7bd
000002c0: 7988 a8bd 4d70 8b3d 5795 a9bc 7c67 ca3d
000002d0: 6c06 c9bd b008 ee3c 1f74 db3d 1310 8c3d
000002e0: d27c 153d b006 daba 549e ca3d ddd3 e13d
000002f0: 68dd 10be 01c3 0e3e 6db9 c9bd 7d84 893d
00000300: 93b2 f93d 70b7 7b3d 86a3 72bd 2de4 e03d
00000310: 72f6 393b 759f 053e 8ef7 b33d a5e8 c3bd
00000320: b628 8cbd a9f2 0f3c 6e62 b0bc 685b e03d
00000330: 831c 3abd c4ee 55bd a77d fabc 4f72 10be
00000340: 4a73 de3d 36af 11be f67f 1bbc e3d4 f3bc
00000350: 699c 02be cf53 d63c 09de 183e 8604 bb3d
00000360: 04eb 233d aec7 d93d 435e 033e b6a9 d4bc
00000370: 876a 7bbd 6499 5ebc 483e 04be f40a 50bc
00000380: 4bd2 0a3e a836 b13d d969 4a3d e369 65bb
00000390: a0e7 9cbd ad51 00be 4d39 e5bd 19c1 1bbe
000003a0: a4a4 efbd add2 90bc 6983 233d f1b9 473d
000003b0: ad8e 1bbd 54b5 f13c b9c5 7e3d 8128 07be
000003c0: 7eea 733d f363 f43d 6d8e 453d 0e20 92bd
000003d0: e7cb 983d 3c08 cebd 699c d1bd 5313 01be
000003e0: 8f44 9bbd b79a 7bbd 1e3d cbbc d806 c73d
000003f0: f6f2 1a3d 7aa3 15bd 6af6 603d d0cb 58bd

in_proj_bias f4 [192]
0.0 0.0 0.0 0.0 0.0 0.0 0.0 0.0
0.0 0.0 0.0 0.0 0.0 0.0 0.0 0.0
0.0 0.0 0.0 0.0 0.0 0.0 0.0 0.0
0.0 0.0 0.0 0.0 0.0 0.0 0.0 0.0
0.0 0.0 0.0 0.0 0.0 0.0 0.0 0.0
0.0 0.0 0.0 0.0 0.0 0.0 0.0 0.0
0.0 0.0 0.0 0.0 0.0 0.0 0.0 0.0
0.0 0.0 0.0 0.0 0.0 0.0 0.0 0.0
0.0 0.0 0.0 0.0 0.0 0.0 0.0 0.0
0.0 0.0 0.0 0.0 0.0 0.0 0.0 0.0
0.0 0.0 0.0 0.0 0.0 0.0 0.0 0.0
0.0 0.0 0.0 0.0 0.0 0.0 0.0 0.0
0.0 0.0 0.0 0.0 0.0 0.0 0.0 0.0
0.0 0.0 0.0 0.0 0.0 0.0 0.0 0.0
0.0 0.0 0.0 0.0 0.0 0.0 0.0 0.0
0.0 0.0 0.0 0.0 0.0 0.0 0.0 0.0
0.0 0.0 0.0 0.0 0.0 0.0 0.0 0.0
0.0 0.0 0.0 0.0 0.0 0.0 0.0 0.0
0.0 0.0 0.0 0.0 0.0 0.0 0.0 0.0
0.0 0.0 0.0 0.0 0.0 0.0 0.0 0.0
0.0 0.0 0.0 0.0 0.0 0.0 0.0 0.0
0.0 0.0 0.0 0.0 0.0 0.0 0.0 0.0
0.0 0.0 0.0 0.0 0.0 0.0 0.0 0.0
0.0 0.0 0.0 0.0 0.0 0.0 0.0 0.0
00000000: 0000 0000 0000 0000 0000 0000 0000 0000
00000010: 0000 0000 0000 0000 0000 0000 0000 0000
00000020: 0000 0000 0000 0000 0000 0000 0000 0000
00000030: 0000 0000 0000 0000 0000 0000 0000 0000
00000040: 0000 0000 0000 0000 0000 0000 0000 0000
00000050: 0000 0000 0000 0000 0000 0000 0000 0000
00000060: 0000 0000 0000 0000 0000 0000 0000 0000
00000070: 0000 0000 0000 0000 0000 0000 0000 0000
00000080: 0000 0000 0000 0000 0000 0000 0000 0000
00000090: 0000 0000 0000 0000 0000 0000 0000 0000
000000a0: 0000 0000 0000 0000 0000 0000 0000 0000
000000b0: 0000 0000 0000 0000 0000 0000 0000 0000
000000c0: 0000 0000 0000 0000 0000 0000 0000 0000
000000d0: 0000 0000 0000 0000 0000 0000 0000 0000
000000e0: 0000 0000 0000 0000 0000 0000 0000 0000
000000f0: 0000 0000 0000 0000 0000 0000 0000 0000
00000100: 0000 0000 0000 0000 0000 0000 0000 0000
00000110: 0000 0000 0000 0000 0000 0000 0000 0000
00000120: 0000 0000 0000 0000 0000 0000 0000 0000
00000130: 0000 0000 0000 0000 0000 0000 0000 0000
00000140: 0000 0000 0000 0000 0000 0000 0000 0000
00000150: 0000 0000 0000 0000 0000 0000 0000 0000
00000160: 0000 0000 0000 0000 0000 0000 0000 0000
00000170: 0000 0000 0000 0000 0000 0000 0000 0000
00000180: 0000 0000 0000 0000 0000 0000 0000 0000
00000190: 0000 0000 0000 0000 0000 0000 0000 0000
000001a0: 0000 0000 0000 0000 0000 0000 0000 0000
000001b0: 0000 0000 0000 0000 0000 0000 0000 0000
000001c0: 0000 0000 0000 0000 0000 0000 0000 0000
000001d0: 0000 0000 0000 0000 0000 0000 0000 0000
000001e0: 0000 0000 0000 0000 0000 0000 0000 0000
000001f0: 0000 0000 0000 0000 0000 0000 0000 0000
00000200: 0000 0000 0000 0000 0000 0000 0000 0000
00000210: 0000 0000 0000 0000 0000 0000 0000 0000
00000220: 0000 0000 0000 0000 0000 0000 0000 0000
00000230: 0000 0000 0000 0000 0000 0000 0000 0000
00000240: 0000 0000 0000 0000 0000 0000 0000 0000
00000250: 0000 0000 0000 0000 0000 0000 0000 0000
00000260: 0000 0000 0000 0000 0000 0000 0000 0000
00000270: 0000 0000 0000 0000 0000 0000 0000 0000
00000280: 0000 0000 0000 0000 0000 0000 0000 0000
00000290: 0000 0000 0000 0000 0000 0000 0000 0000
000002a0: 0000 0000 0000 0000 0000 0000 0000 0000
000002b0: 0000 0000 0000 0000 0000 0000 0000 0000
000002c0: 0000 0000 0000 0000 0000 0000 0000 0000
000002d0: 0000 0000 0000 0000 0000 0000 0000 0000
000002e0: 0000 0000 0000 0000 0000 0000 0000 0000
000002f0: 0000 0000 0000 0000 0000 0000 0000 0000

weight f4 [64, 64]
-0.010975346 0.026250333 -0.031236693 0.12376176 0.121438846 0.014819697 0.122799814 -0.08114463
-0.09950721 -0.021460608 -0.039126605 -0.0412035 0.0015421808 0.11432196 -0.09705415 -0.049156517
0.017659426 0.037240237 0.02246736 -0.12060028 0.06064585 -0.026596576 0.121846765 -0.04363303
-0.022740051 -0.014803484 0.09547269 -0.04165362 -0.02716823 -0.038055643 -0.01181455 -0.10778025
-0.03290078 0.044660732 0.035998583 0.121441305 -0.11034687 -0.05713217 0.0385869 0.096887976
-0.08314867 -0.119804665 -0.051717043 0.01705885 -0.08965914 -0.120927915 -0.014211759 0.078289926
0.08138095 0.11284113 -0.11952932 -0.0009842515 -0.051822364 0.12473482 -0.0631502 -0.0944666
-0.093905926 0.08910115 -0.12311043 -0.11534178 0.054647 0.065689534 -0.11875115 -0.114861235
0.08843212 0.049439833 -0.09726292 0.0013290942 0.106221974 0.016938478 -0.09010309 -0.088313505
-0.009514958 0.023789734 0.12005168 -0.08220366 -0.11899692 -0.10488328 0.102468476 -0.07692173
0.09531133 -0.11525895 -0.07193573 0.013084158 0.062186405 -0.116361484 0.0809502 0.043158412
-0.12407099 0.01472199 -0.028896123 0.021374002 0.002585724 0.041756496 -0.048137635 0.08805609
0.014087155 0.08156139 -0.06120944 0.047950417 0.044344515 -0.09866504 -0.104613945 0.111576185
-0.043790042 0.075406745 -0.08658388 -0.06071423 -0.023448318 -0.11013335 -0.10213369 0.08838016
-0.004857376 -0.024635077 -0.015473172 0.05463694 -0.039038748 0.08264387 -0.10019383 -0.009865642
-0.117931664 -0.095320106 0.06906083 -0.044021517 -0.1225142 0.054985166 0.019790709 -0.1211523
0.011276737 0.11744313 0.04649219 -0.07694657 0.0030865967 -0.039676413 0.08665216 -0.012884289
0.09961994 -0.0596333 -0.10430586 -0.11609465 -0.08662164 0.0063358545 0.08976361 0.09632997
-0.06851667 -0.055555403 0.04365702 -0.052562743 -0.076505736 -0.07260741 0.037874043 0.00549148
0.0042341202 -0.013651043 0.0261693 -0.058129624 0.027663127 0.08417557 0.052075133 -0.05145569
-0.10365245 0.09957188 -0.044270784 0.04155819 -0.09214792 0.11053689 0.048388228 0.015701026
0.047370285 -0.064081654 -0.10488282 0.11225079 -0.037542373 0.054928318 -0.006829858 0.03691265
-0.06442535 0.03500551 -0.09797092 0.00697203 0.01486811 0.11750585 -0.010159135 -0.06490466
-0.07879336 -0.09368689 0.110509396 0.07664645 0.065391734 0.062124416 0.04165639 0.12022172
-0.0486632 0.069347546 -0.100711465 -0.0013252944 -0.05340816 0.022398517 0.12257598 -0.068488345
-0.078399956 -0.020949677 0.09205265 -0.11894566 0.10408677 -0.031885028 -0.05185692 -0.061207816
-0.11139633 -0.09277521 0.024993688 -0.053773463 0.06474516 0.067355126 -0.07303022 -0.009533435
0.00028385222 -0.08073248 0.092903346 0.063336775 0.06234905 0.003530413 0.01621598 -0.09883888
-0.03132479 -0.088846356 -0.0070916265 -0.08475049 0.030427024 0.095053256 -0.08104542 -0.088639885
0.12141292 -0.10763791 -0.10015535 -0.114246264 -0.04239437 0.02814272 -0.042475477 -0.05752763
-0.03268656 -0.11190158 0.11545956 -0.023045436 0.08479132 -0.117572665 -0.03063111 -0.10854301
0.027816728 -0.018438905 -0.108208045 -0.06578946 0.0577901 0.08617544 0.10631508 -0.057282656
00000000: f0d1 33bc f00a d73c 18e4 ffbc ce76 fd3d
00000010: eeb4 f83d 50ce 723c 787e fb3d 282f a6bd
00000020: 70ca cbbd 28ce afbc 3843 20bd 00c5 28bd
00000030: 0023 ca3a a221 ea3d 54c4 c6bd 5858 49bd
00000040: 80aa 903c 3889 183d 780d b83c 48fd f6bd
00000050: c867 783d 10e1 d9bc cc8a f93d 8cb8 32bd
00000060: 5849 babc 508a 72bc 3087 c33d fc9c 2abd
00000070: e88f debc 3ce0 1bbd d091 41bc e4bb dcbd
00000080: f8c2 06bd 2cee 363d 4073 133d 38b6 f83d
00000090: 8afd e1bd 6c03 6abd 4c0d 1e3d 346d c63d
000000a0: da49 aabd 265c f5bd 40d5 53bd 00bf 8b3c
000000b0: 369f b7bd 0ea9 f7bd 70d8 68bc 7856 a03d
000000c0: 0eab a63d 4019 e73d cacb f4bd 0002 81ba
000000d0: b043 54bd f874 ff3d e454 81bd b477 c1bd
000000e0: c051 c0bd aa7a b63d 5221 fcbd 5038 ecbd
000000f0: 88d5 5f3d 3c88 863d ce33 f3bd 5e3c ebbd
00000100: e61b b53d 6c81 4a3d c831 c7bd 0035 ae3a
00000110: e88a d93d 90c2 8a3c f887 b8bd b6dd b4bd
00000120: a0e4 1bbc b0e2 c23c a8dd f53d 645a a8bd
00000130: a8b4 f3bd 0ccd d6bd feda d13d 2489 9dbd
00000140: 9632 c33d e20c ecbd 0a53 93bd f05e 563c
00000150: 2cb7 7e3d ee4e eebd 38c9 a53d e0c6 303d
00000160: ee18 febd 8034 713c 90b7 ecbc 8818 af3c
00000170: 4075 293b dc08 2b3d f82b 45bd c056 b43d
00000180: d0cd 663c a809 a73d c0b6 7abd a867 443d
00000190: 98a2 353d e610 cabd d63f d6bd 0e82 e43d
000001a0: 305d 33bd da6e 9a3d e452 b1bd 7caf 78bd
000001b0: b016 c0bc 988d e1bd 782b d1bd a800 b53d
000001c0: a02a 9fbb 80cf c9bc 3083 7dbc fcca 5f3d
000001d0: 18e7 1fbd 3041 a93d 6c32 cdbd 80a3 21bc
000001e0: 2886 f1bd 3037 c3bd c46f 8d3d e84f 34bd
000001f0: bae8 fabd 2038 613d 2020 a23c b21e f8bd
00000200: 10c2 383c 0686 f03d 986e 3e3d 2a96 9dbd
00000210: 8048 4a3b bc83 22bd b076 b13d a018 53bc
00000220: 8a05 cc3d 0c42 74bd 509e d5bd 08c3 edbd
00000230: b066 b1bd 009d cf3b fcd5 b73d a648 c53d
00000240: 7852 8cbd 108e 63bd b4d1 323d 084c 57bd
00000250: 0aaf 9cbd 32b3 94bd d021 1b3d e0f1 b33b
00000260: 60be 8a3b a0a8 5fbc 0061 d63c 5419 6ebd
00000270: c89d e23c 3e64 ac3d bc4c 553d 34c3 52bd
00000280: bc47 d4bd 58ec cb3d 4855 35bd ec38 2a3d
00000290: 0cb8 bcbd 2a61 e23d bc32 463d 709f 803c
000002a0: 5807 423d 3e3d 83bd cecc d6bd bee3 e53d
000002b0: 08c6 19bd 84fc 603d 00cd dfbb b831 173d
000002c0: 70f1 83bd f061 0f3d faa4 c8bd a075 e43b
000002d0: 6099 733c e8a6 f03d 8072 26bc bcec 84bd
000002e0: 6a5e a1bd eade bfbd c052 e23d d0f8 9c3d
000002f0: 1aec 853d 2c76 7e3d e49f 2a3d ce36 f63d
00000300: 1053 47bd 1606 8e3d d041 cebd 80b5 adba
00000310: 84c2 5abd 187d b73c 1e09 fb3d 9e43 8cbd
00000320: 2890 a0bd a89e abbc 1a86 bc3d c899 f3bd
00000330: 722b d53d e099 02bd ec67 54bd 0cb5 7abd
00000340: c223 e4bd ee00 bebd 90bf cc3c 9041 5cbd
00000350: 1c99 843d 7cf1 893d de90 95bd 2032 1cbc
00000360: 00d2 9439 1257 a5bd 1c44 be3d b6b6 813d
00000370: b861 7f3d 805e 673b 60d7 843c 0a6c cabd
00000380: 6c4e 00bd 14f5 b5bd e060 e8bb aa91 adbd
00000390: 1842 f93c 48ab c23d 24fb a5bd d488 b5bd
000003a0: 56a7 f83d 4471 dcbd 401e cdbd f2f9 e9bd
000003b0: b8a5 2dbd 908b e63c c4fa 2dbd 18a2 6bbd
000003c0: 58e2 05bd a82c e5bd 1076 ec3d c8c9 bcbc
000003d0: 12a7 ad3d f0c9 f0bd 18ee fabc cc4b debd
000003e0: e8df e33c 300d 97bc 2e9c ddbd a0bc 86bd
000003f0: 50b5 6c3d c07c b03d b8bb d93d 38a1 6abd

bias f4 [64]
0.0 0.0 0.0 0.0 0.0 0.0 0.0 0.0
0.0 0.0 0.0 0.0 0.0 0.0 0.0 0.0
0.0 0.0 0.0 0.0 0.0 0.0 0.0 0.0
0.0 0.0 0.0 0.0 0.0 0.0 0.0 0.0
0.0 0.0 0.0 0.0 0.0 0.0 0.0 0.0
0.0 0.0 0.0 0.0 0.0 0.0 0.0 0.0
0.0 0.0 0.0 0.0 0.0 0.0 0.0 0.0
0.0 0.0 0.0 0.0 0.0 0.0 0.0 0.0
00000000: 0000 0000 0000 0000 0000 0000 0000 0000
00000010: 0000 0000 0000 0000 0000 0000 0000 0000
00000020: 0000 0000 0000 0000 0000 0000 0000 0000
00000030: 0000 0000 0000 0000 0000 0000 0000 0000
00000040: 0000 0000 0000 0000 0000 0000 0000 0000
00000050: 0000 0000 0000 0000 0000 0000 0000 0000
00000060: 0000 0000 0000 0000 0000 0000 0000 0000
00000070: 0000 0000 0000 0000 0000 0000 0000 0000
00000080: 0000 0000 0000 0000 0000 0000 0000 0000
00000090: 0000 0000 0000 0000 0000 0000 0000 0000
000000a0: 0000 0000 0000 0000 0000 0000 0000 0000
000000b0: 0000 0000 0000 0000 0000 0000 0000 0000
000000c0: 0000 0000 0000 0000 0000 0000 0000 0000
000000d0: 0000 0000 0000 0000 0000 0000 0000 0000
000000e0: 0000 0000 0000 0000 0000 0000 0000 0000
000000f0: 0000 0000 0000 0000 0000 0000 0000 0000

weight_ih_l0 f4 [96, 64]
0.07423158 -0.15361495 0.051129416 0.0051883613 0.11548215 -0.12782975 0.013593771 0.12334515
0.1728233 -0.10231034 0.053017173 0.021705205 0.04380912 -0.12768202 0.13486113 -0.04318084
-0.058196347 -0.108983696 -0.1071529 -0.025639445 0.109350435 -0.10513215 -0.05290574 0.09054578
-0.023153286 0.020412076 0.16732454 0.1230045 -0.03479707 -0.12255962 0.028335959 -0.08024777
0.17562114 -0.08117455 0.14132023 0.07569403 -0.10558997 -0.07463124 -0.034030546 -0.023215748
0.058701497 -0.11597672 -0.13764204 0.086842105 -0.055889335 -0.061237473 -0.093949325 0.018669073
0.10193923 0.16108459 0.03505895 0.06625432 0.025093516 0.07198901 0.102595076 0.11075073
0.0087833395 0.08983548 0.12683874 -0.14654891 -0.17011146 -0.03403322 0.06484646 0.061930683
-0.03780897 0.046306003 0.11419558 -0.021078777 -0.00175019 0.13058564 0.09431611 -0.0020425627
0.025217976 0.14864297 0.10007988 0.11969463 -0.08160376 0.15664512 -0.13685644 -0.14929241
-0.17464885 -0.14929539 0.15989201 -0.04860636 0.16856907 -0.044546943 0.11995429 0.15327771
-0.032420747 -0.051154472 0.09416954 0.11084191 -0.0069966083 -0.11516359 -0.13707048 0.017034575
-0.057326604 -0.09698184 -0.11186381 0.15995544 0.10271659 -0.024633568 0.07350897 0.0018385298
-0.08060917 0.12423369 -0.15690584 -0.15566449 0.019632444 0.05768603 0.15733148 0.03579576
0.16819222 0.08077458 -0.15058225 -0.12854771 -0.03185463 0.050043166 0.019486574 0.13151492
-0.10544235 -0.006571073 0.018357059 -0.097839 -0.039082225 0.1482638 -0.035401035 -0.11142796
0.07401027 -0.102222666 0.15817519 0.034325954 0.1310161 -0.08139237 -0.10693271 -0.0030879942
-0.027831776 -0.14944404 0.12095941 0.15807024 0.102754 0.10355295 0.011509693 0.01580549
-0.020881824 0.05707033 0.033806387 0.01810205 -0.1472097 0.0749903 -0.17200889 -0.10326342
0.054997653 -0.10830381 0.06470477 -0.15836851 0.025252473 -0.13075684 -0.060887866 0.1367566
-0.08250214 0.14805806 -0.015394136 -0.106146626 -0.08960407 -0.071341336 -0.0077210497 -0.120794974
-0.17177276 0.16624008 0.1071528 0.10148417 -0.16616198 0.043653324 0.10892109 0.15617968
0.028595962 -0.037402526 -0.123356596 -0.13800676 0.17602143 0.067315236 0.041692443 0.07741518
-0.007106991 -0.07424606 0.010168033 -0.06031376 -0.17128389 0.06948407 -0.09886053 -0.017233193
-0.14766909 0.07765959 -0.1665069 0.121730655 -0.09063832 0.0050892318 -0.12172161 0.08434016
-0.011448306 -0.11128637 -0.095460206 0.08892026 -0.1667699 -0.08987773 0.16242139 -0.1728817
0.08585858 -0.074500054 -0.04045874 0.03952778 -0.1675717 0.07137634 0.02485328 0.13063481
0.14995603 -0.08808343 0.0099620605 0.051035915 -0.05309508 -0.13694781 0.003823267 -0.16197291
0.010778213 -0.08458986 -0.12692721 -0.16041546 0.021332964 -0.16142747 -0.005335011 0.0657169
0.083486035 0.15464155 0.030752847 -0.16685368 -0.16532746 0.105052136 0.15799414 -0.017259577
-0.122150645 -0.050153147 -0.13578548 -0.14977042 -0.015020083 0.05391016 -0.06633644 0.17137264
0.009016286 -0.06683525 0.118026644 0.036080632 0.031442348 -0.11508799 -0.009343703 -0.14203721
00000000: ba06 983d 3d4d 1dbe 146d 513d 2103 aa3b
00000010: e881 ec3d cde5 02be 68b8 5e3c 629c fc3d
00000020: 97f8 303e 1588 d1bd 8928 593d 1dcf b13c
00000030: 3171 333d 13bf 02be 0919 0a3e 64de 30bd
00000040: 4b5f 6ebd d832 dfbd fb72 dbbd d009 d2bc
00000050: 1ff3 df3d 864f d7bd b0b3 58bd 1170 b93d
00000060: f6ab bdbc 3a37 a73c 2057 2b3e c9e9 fb3d
00000070: 5f87 0ebd 8a00 fbbd d020 e83c f158 a4bd
00000080: 07d6 333e d83e a6bd 40b6 103e 7905 9b3d
00000090: 8e3f d8bd 43d8 98bd 9d63 0bbd f42e bebc
000000a0: fb70 703d 3485 edbd 09f2 0cbe 46da b13d
000000b0: 37ec 64bd 25d4 7abd 8168 c0bd e2ef 983c
000000c0: 84c5 d03d 5cf3 243e f999 0f3d 58b0 873d
000000d0: eb90 cd3c f96e 933d 5e1d d23d 47d1 e23d
000000e0: ffe7 0f3c aafb b73d 04e2 013e eb10 16be
000000f0: b331 2ebe 6b66 0bbd 39ce 843d 07ab 7d3d
00000100: 94dd 1abd 5dab 3d3d 5fdf e93d 66ad acbc
00000110: a266 e5ba 3eb8 053e ce28 c13d 84dc 05bb
00000120: ee95 ce3c dd35 183e aef6 cc3d 7522 f53d
00000130: df1f a7bd 9467 203e 1824 0cbe 1ce0 18be
00000140: 26d7 32be e4e0 18be bbba 233e 7617 47bd
00000150: 5f9d 2c3e db76 36bd 98aa f53d d5f4 1c3e
00000160: 9ecb 04bd 5a87 51bd f6db c03d 1501 e33d
00000170: ce43 e5bb e3da ebbd 345c 0cbe 188c 8b3c
00000180: 4dcf 6abd 6a9e c6bd da18 e5bd 5ccb 233e
00000190: 135d d23d 56cc c9bc df8b 963d d3fa f03a
000001a0: 6c16 a5bd 3c6e fe3d edab 20be 8366 1fbe
000001b0: 38d4 a03c 3048 6c3d 811b 213e 939e 123d
000001c0: 953a 2c3e 256d a53d 3c32 1abe 03a2 03be
000001d0: 007a 02bd 10fa 4c3d 4fa2 9f3c d9ab 063e
000001e0: 29f2 d7bd 2852 d7bb 8b61 963c d05f c8bd
000001f0: af14 20bd 77d2 173e ad00 11bd 5834 e4bd
00000200: b292 973d 1e5a d1bd adf8 213e 5f99 0c3d
00000210: 1629 063e 0bb1 a6bd 89ff dabd f25f 4abb
00000220: 77ff e3bc dc07 19be 91b9 f73d 2add 213e
00000230: b070 d23d 9213 d43d 2793 3c3c 847a 813c
00000240: 5c10 abbc 94c2 693d 9178 0a3d c04a 943c
00000250: 24be 16be 8494 993d 1923 30be c67b d3bd
00000260: 3845 613d 63ce ddbd ef83 843d 5b2b 22be
00000270: 46de ce3c 1fe5 05be 8e65 79bd ec09 0c3e
00000280: e2f6 a8bd 889c 173e b037 7cbc 6763 d9bd
00000290: 5782 b7bd 681b 92bd dc00 fdbb 5b63 f7bd
000002a0: 33e5 2fbe d73a 2a3e ed72 db3d efd6 cf3d
000002b0: 5e26 2abe d4cd 323d 0512 df3d 91ed 1f3e
000002c0: 1442 ea3c 6433 19bd 62a2 fcbd a551 0dbe
000002d0: f63e 343e 92dc 893d b2c5 2a3d da8b 9e3d
000002e0: c3e1 e8bb 510e 98bd d297 263c 900b 77bd
000002f0: 0b65 2fbe aa4d 8e3d 6477 cabd a02c 8dbc
00000300: 9136 17be fe0b 9f3d c980 2abe ec4d f93d
00000310: 95a0 b9bd 92c3 a63b 2e49 f9bd 89ba ac3d
00000320: ad91 3bbc 1cea e3bd a480 c3bd d31b b63d
00000330: bbc5 2abe d111 b8bd cb51 263e e607 31be
00000340: a0d6 af3d 7c93 98bd 10b8 25bd e2e7 213d
00000350: ea97 2bbe c22d 923d 1b99 cb3c 22c5 053e
00000360: 138e 193e 1665 b4bd e937 233c 090b 513d
00000370: 3a7a 59bd 0c3c 0cbe c78f 7a3b 3adc 25be
00000380: 1a97 303c 733d adbd 35f9 01be f343 24be
00000390: 78c2 ae3c 3e4d 25be 51d1 aebb 9596 863d
000003a0: bafa aa3d 5b5a 1e3e 65ed fb3c b1db 2abe
000003b0: 9a4b 29be 9325 d73d 37c9 213e f563 8dbc
000003c0: 1e2a fabd 636d 4dbd 590b 0bbe 6b5d 19be
000003d0: cb16 76bc e6d0 5c3d 66db 87bd 4f7c 2f3e
000003e0: 0bb9 133c ebe0 88bd f4b7 f13d 49c9 133d
000003f0: b1c9 003d 41b3 ebbd 5516 19bc 3472 11be
